{"keras_version": "1.0.4", "sample_weight_mode": null, "optimizer": {"name": "RMSprop", "lr": 0.0010000000474974513, "rho": 0.8999999761581421, "epsilon": 1e-08}, "loss": "binary_crossentropy", "config": [{"config": {"name": "dropout_87", "batch_input_shape": [null, 1, 60, 240], "trainable": true, "input_dtype": "float32", "p": 0.25}, "class_name": "Dropout"}, {"config": {"nodes": {"maxpool-5": {"config": {"trainable": true, "border_mode": "valid", "strides": [56, 1], "name": "maxpool-5", "pool_size": [56, 1], "dim_ordering": "th"}, "class_name": "MaxPooling2D"}, "flatten-4": {"config": {"name": "flatten-4", "trainable": true}, "class_name": "Flatten"}, "maxpool-6": {"config": {"trainable": true, "border_mode": "valid", "strides": [55, 1], "name": "maxpool-6", "pool_size": [55, 1], "dim_ordering": "th"}, "class_name": "MaxPooling2D"}, "maxpool-3": {"config": {"trainable": true, "border_mode": "valid", "strides": [58, 1], "name": "maxpool-3", "pool_size": [58, 1], "dim_ordering": "th"}, "class_name": "MaxPooling2D"}, "flatten-3": {"config": {"name": "flatten-3", "trainable": true}, "class_name": "Flatten"}, "maxpool-4": {"config": {"trainable": true, "border_mode": "valid", "strides": [57, 1], "name": "maxpool-4", "pool_size": [57, 1], "dim_ordering": "th"}, "class_name": "MaxPooling2D"}, "maxpool-2": {"config": {"trainable": true, "border_mode": "valid", "strides": [59, 1], "name": "maxpool-2", "pool_size": [59, 1], "dim_ordering": "th"}, "class_name": "MaxPooling2D"}, "conv-4": {"config": {"trainable": true, "border_mode": "valid", "input_dtype": "float32", "W_constraint": null, "subsample": [1, 1], "activation": "linear", "b_regularizer": null, "activity_regularizer": null, "nb_filter": 150, "batch_input_shape": [null, 1, 60, 240], "bias": true, "nb_row": 4, "W_regularizer": null, "nb_col": 240, "init": "glorot_uniform", "name": "conv-4", "b_constraint": null, "dim_ordering": "th"}, "class_name": "Convolution2D"}, "flatten-6": {"config": {"name": "flatten-6", "trainable": true}, "class_name": "Flatten"}, "flatten-5": {"config": {"name": "flatten-5", "trainable": true}, "class_name": "Flatten"}, "flatten-2": {"config": {"name": "flatten-2", "trainable": true}, "class_name": "Flatten"}, "conv-5": {"config": {"trainable": true, "border_mode": "valid", "input_dtype": "float32", "W_constraint": null, "subsample": [1, 1], "activation": "linear", "b_regularizer": null, "activity_regularizer": null, "nb_filter": 150, "batch_input_shape": [null, 1, 60, 240], "bias": true, "nb_row": 5, "W_regularizer": null, "nb_col": 240, "init": "glorot_uniform", "name": "conv-5", "b_constraint": null, "dim_ordering": "th"}, "class_name": "Convolution2D"}, "conv-2": {"config": {"trainable": true, "border_mode": "valid", "input_dtype": "float32", "W_constraint": null, "subsample": [1, 1], "activation": "linear", "b_regularizer": null, "activity_regularizer": null, "nb_filter": 150, "batch_input_shape": [null, 1, 60, 240], "bias": true, "nb_row": 2, "W_regularizer": null, "nb_col": 240, "init": "glorot_uniform", "name": "conv-2", "b_constraint": null, "dim_ordering": "th"}, "class_name": "Convolution2D"}, "conv-3": {"config": {"trainable": true, "border_mode": "valid", "input_dtype": "float32", "W_constraint": null, "subsample": [1, 1], "activation": "linear", "b_regularizer": null, "activity_regularizer": null, "nb_filter": 150, "batch_input_shape": [null, 1, 60, 240], "bias": true, "nb_row": 3, "W_regularizer": null, "nb_col": 240, "init": "glorot_uniform", "name": "conv-3", "b_constraint": null, "dim_ordering": "th"}, "class_name": "Convolution2D"}, "conv-6": {"config": {"trainable": true, "border_mode": "valid", "input_dtype": "float32", "W_constraint": null, "subsample": [1, 1], "activation": "linear", "b_regularizer": null, "activity_regularizer": null, "nb_filter": 150, "batch_input_shape": [null, 1, 60, 240], "bias": true, "nb_row": 6, "W_regularizer": null, "nb_col": 240, "init": "glorot_uniform", "name": "conv-6", "b_constraint": null, "dim_ordering": "th"}, "class_name": "Convolution2D"}}, "input_config": [{"name": "input", "input_shape": [1, 60, 240], "dtype": "float32"}], "output_config": [{"input": null, "inputs": ["flatten-2", "flatten-3", "flatten-4", "flatten-5", "flatten-6"], "merge_mode": "concat", "dot_axes": -1, "name": "output", "concat_axis": -1}], "node_config": [{"input": "input", "inputs": [], "merge_mode": "concat", "dot_axes": -1, "name": "conv-2", "concat_axis": -1, "create_output": false}, {"input": "conv-2", "inputs": [], "merge_mode": "concat", "dot_axes": -1, "name": "maxpool-2", "concat_axis": -1, "create_output": false}, {"input": "maxpool-2", "inputs": [], "merge_mode": "concat", "dot_axes": -1, "name": "flatten-2", "concat_axis": -1, "create_output": false}, {"input": "input", "inputs": [], "merge_mode": "concat", "dot_axes": -1, "name": "conv-3", "concat_axis": -1, "create_output": false}, {"input": "conv-3", "inputs": [], "merge_mode": "concat", "dot_axes": -1, "name": "maxpool-3", "concat_axis": -1, "create_output": false}, {"input": "maxpool-3", "inputs": [], "merge_mode": "concat", "dot_axes": -1, "name": "flatten-3", "concat_axis": -1, "create_output": false}, {"input": "input", "inputs": [], "merge_mode": "concat", "dot_axes": -1, "name": "conv-4", "concat_axis": -1, "create_output": false}, {"input": "conv-4", "inputs": [], "merge_mode": "concat", "dot_axes": -1, "name": "maxpool-4", "concat_axis": -1, "create_output": false}, {"input": "maxpool-4", "inputs": [], "merge_mode": "concat", "dot_axes": -1, "name": "flatten-4", "concat_axis": -1, "create_output": false}, {"input": "input", "inputs": [], "merge_mode": "concat", "dot_axes": -1, "name": "conv-5", "concat_axis": -1, "create_output": false}, {"input": "conv-5", "inputs": [], "merge_mode": "concat", "dot_axes": -1, "name": "maxpool-5", "concat_axis": -1, "create_output": false}, {"input": "maxpool-5", "inputs": [], "merge_mode": "concat", "dot_axes": -1, "name": "flatten-5", "concat_axis": -1, "create_output": false}, {"input": "input", "inputs": [], "merge_mode": "concat", "dot_axes": -1, "name": "conv-6", "concat_axis": -1, "create_output": false}, {"input": "conv-6", "inputs": [], "merge_mode": "concat", "dot_axes": -1, "name": "maxpool-6", "concat_axis": -1, "create_output": false}, {"input": "maxpool-6", "inputs": [], "merge_mode": "concat", "dot_axes": -1, "name": "flatten-6", "concat_axis": -1, "create_output": false}]}, "class_name": "Graph"}, {"config": {"trainable": true, "W_constraint": null, "output_dim": 150, "activation": "linear", "init": "glorot_uniform", "activity_regularizer": null, "bias": true, "W_regularizer": null, "input_dim": null, "name": "dense_87", "b_regularizer": null, "b_constraint": null}, "class_name": "Dense"}, {"config": {"name": "dropout_88", "trainable": true, "p": 0.5}, "class_name": "Dropout"}, {"config": {"name": "activation_87", "trainable": true, "activation": "relu"}, "class_name": "Activation"}, {"config": {"trainable": true, "W_constraint": null, "output_dim": 1, "activation": "linear", "init": "glorot_uniform", "activity_regularizer": null, "bias": true, "W_regularizer": null, "input_dim": null, "name": "dense_88", "b_regularizer": null, "b_constraint": null}, "class_name": "Dense"}, {"config": {"name": "activation_88", "trainable": true, "activation": "sigmoid"}, "class_name": "Activation"}], "class_name": "Sequential"}