{"config": [{"config": {"batch_input_shape": [null, 1, 60, 20], "trainable": true, "input_dtype": "float32", "p": 0.25, "name": "dropout_1"}, "class_name": "Dropout"}, {"config": {"input_config": [{"input_shape": [1, 60, 20], "dtype": "float32", "name": "input"}], "output_config": [{"merge_mode": "concat", "inputs": ["flatten-2", "flatten-3", "flatten-4", "flatten-5", "flatten-6"], "input": null, "dot_axes": -1, "concat_axis": -1, "name": "output"}], "node_config": [{"merge_mode": "concat", "inputs": [], "input": "input", "create_output": false, "dot_axes": -1, "concat_axis": -1, "name": "conv-2"}, {"merge_mode": "concat", "inputs": [], "input": "conv-2", "create_output": false, "dot_axes": -1, "concat_axis": -1, "name": "maxpool-2"}, {"merge_mode": "concat", "inputs": [], "input": "maxpool-2", "create_output": false, "dot_axes": -1, "concat_axis": -1, "name": "flatten-2"}, {"merge_mode": "concat", "inputs": [], "input": "input", "create_output": false, "dot_axes": -1, "concat_axis": -1, "name": "conv-3"}, {"merge_mode": "concat", "inputs": [], "input": "conv-3", "create_output": false, "dot_axes": -1, "concat_axis": -1, "name": "maxpool-3"}, {"merge_mode": "concat", "inputs": [], "input": "maxpool-3", "create_output": false, "dot_axes": -1, "concat_axis": -1, "name": "flatten-3"}, {"merge_mode": "concat", "inputs": [], "input": "input", "create_output": false, "dot_axes": -1, "concat_axis": -1, "name": "conv-4"}, {"merge_mode": "concat", "inputs": [], "input": "conv-4", "create_output": false, "dot_axes": -1, "concat_axis": -1, "name": "maxpool-4"}, {"merge_mode": "concat", "inputs": [], "input": "maxpool-4", "create_output": false, "dot_axes": -1, "concat_axis": -1, "name": "flatten-4"}, {"merge_mode": "concat", "inputs": [], "input": "input", "create_output": false, "dot_axes": -1, "concat_axis": -1, "name": "conv-5"}, {"merge_mode": "concat", "inputs": [], "input": "conv-5", "create_output": false, "dot_axes": -1, "concat_axis": -1, "name": "maxpool-5"}, {"merge_mode": "concat", "inputs": [], "input": "maxpool-5", "create_output": false, "dot_axes": -1, "concat_axis": -1, "name": "flatten-5"}, {"merge_mode": "concat", "inputs": [], "input": "input", "create_output": false, "dot_axes": -1, "concat_axis": -1, "name": "conv-6"}, {"merge_mode": "concat", "inputs": [], "input": "conv-6", "create_output": false, "dot_axes": -1, "concat_axis": -1, "name": "maxpool-6"}, {"merge_mode": "concat", "inputs": [], "input": "maxpool-6", "create_output": false, "dot_axes": -1, "concat_axis": -1, "name": "flatten-6"}], "nodes": {"flatten-2": {"config": {"trainable": true, "name": "flatten-2"}, "class_name": "Flatten"}, "conv-6": {"config": {"nb_row": 6, "bias": true, "input_dtype": "float32", "nb_col": 20, "activity_regularizer": null, "b_constraint": null, "trainable": true, "subsample": [1, 1], "W_regularizer": null, "batch_input_shape": [null, 1, 60, 20], "border_mode": "valid", "W_constraint": null, "init": "glorot_uniform", "nb_filter": 150, "dim_ordering": "th", "b_regularizer": null, "activation": "linear", "name": "conv-6"}, "class_name": "Convolution2D"}, "maxpool-4": {"config": {"dim_ordering": "th", "border_mode": "valid", "trainable": true, "pool_size": [57, 1], "strides": [57, 1], "name": "maxpool-4"}, "class_name": "MaxPooling2D"}, "flatten-4": {"config": {"trainable": true, "name": "flatten-4"}, "class_name": "Flatten"}, "maxpool-2": {"config": {"dim_ordering": "th", "border_mode": "valid", "trainable": true, "pool_size": [59, 1], "strides": [59, 1], "name": "maxpool-2"}, "class_name": "MaxPooling2D"}, "conv-3": {"config": {"nb_row": 3, "bias": true, "input_dtype": "float32", "nb_col": 20, "activity_regularizer": null, "b_constraint": null, "trainable": true, "subsample": [1, 1], "W_regularizer": null, "batch_input_shape": [null, 1, 60, 20], "border_mode": "valid", "W_constraint": null, "init": "glorot_uniform", "nb_filter": 150, "dim_ordering": "th", "b_regularizer": null, "activation": "linear", "name": "conv-3"}, "class_name": "Convolution2D"}, "flatten-6": {"config": {"trainable": true, "name": "flatten-6"}, "class_name": "Flatten"}, "maxpool-5": {"config": {"dim_ordering": "th", "border_mode": "valid", "trainable": true, "pool_size": [56, 1], "strides": [56, 1], "name": "maxpool-5"}, "class_name": "MaxPooling2D"}, "maxpool-6": {"config": {"dim_ordering": "th", "border_mode": "valid", "trainable": true, "pool_size": [55, 1], "strides": [55, 1], "name": "maxpool-6"}, "class_name": "MaxPooling2D"}, "flatten-3": {"config": {"trainable": true, "name": "flatten-3"}, "class_name": "Flatten"}, "conv-5": {"config": {"nb_row": 5, "bias": true, "input_dtype": "float32", "nb_col": 20, "activity_regularizer": null, "b_constraint": null, "trainable": true, "subsample": [1, 1], "W_regularizer": null, "batch_input_shape": [null, 1, 60, 20], "border_mode": "valid", "W_constraint": null, "init": "glorot_uniform", "nb_filter": 150, "dim_ordering": "th", "b_regularizer": null, "activation": "linear", "name": "conv-5"}, "class_name": "Convolution2D"}, "conv-4": {"config": {"nb_row": 4, "bias": true, "input_dtype": "float32", "nb_col": 20, "activity_regularizer": null, "b_constraint": null, "trainable": true, "subsample": [1, 1], "W_regularizer": null, "batch_input_shape": [null, 1, 60, 20], "border_mode": "valid", "W_constraint": null, "init": "glorot_uniform", "nb_filter": 150, "dim_ordering": "th", "b_regularizer": null, "activation": "linear", "name": "conv-4"}, "class_name": "Convolution2D"}, "maxpool-3": {"config": {"dim_ordering": "th", "border_mode": "valid", "trainable": true, "pool_size": [58, 1], "strides": [58, 1], "name": "maxpool-3"}, "class_name": "MaxPooling2D"}, "conv-2": {"config": {"nb_row": 2, "bias": true, "input_dtype": "float32", "nb_col": 20, "activity_regularizer": null, "b_constraint": null, "trainable": true, "subsample": [1, 1], "W_regularizer": null, "batch_input_shape": [null, 1, 60, 20], "border_mode": "valid", "W_constraint": null, "init": "glorot_uniform", "nb_filter": 150, "dim_ordering": "th", "b_regularizer": null, "activation": "linear", "name": "conv-2"}, "class_name": "Convolution2D"}, "flatten-5": {"config": {"trainable": true, "name": "flatten-5"}, "class_name": "Flatten"}}}, "class_name": "Graph"}, {"config": {"bias": true, "init": "glorot_uniform", "activity_regularizer": null, "b_constraint": null, "trainable": true, "W_regularizer": null, "output_dim": 150, "W_constraint": null, "b_regularizer": null, "name": "dense_1", "activation": "linear", "input_dim": null}, "class_name": "Dense"}, {"config": {"trainable": true, "p": 0.5, "name": "dropout_2"}, "class_name": "Dropout"}, {"config": {"trainable": true, "activation": "relu", "name": "activation_1"}, "class_name": "Activation"}, {"config": {"bias": true, "init": "glorot_uniform", "activity_regularizer": null, "b_constraint": null, "trainable": true, "W_regularizer": null, "output_dim": 1, "W_constraint": null, "b_regularizer": null, "name": "dense_2", "activation": "linear", "input_dim": null}, "class_name": "Dense"}, {"config": {"trainable": true, "activation": "sigmoid", "name": "activation_2"}, "class_name": "Activation"}], "class_name": "Sequential"}