{"config": [{"config": {"trainable": true, "p": 0.25, "batch_input_shape": [null, 1, 60, 40], "name": "dropout_1", "input_dtype": "float32"}, "class_name": "Dropout"}, {"config": {"node_config": [{"input": "input", "create_output": false, "name": "conv-2", "dot_axes": -1, "concat_axis": -1, "merge_mode": "concat", "inputs": []}, {"input": "conv-2", "create_output": false, "name": "maxpool-2", "dot_axes": -1, "concat_axis": -1, "merge_mode": "concat", "inputs": []}, {"input": "maxpool-2", "create_output": false, "name": "flatten-2", "dot_axes": -1, "concat_axis": -1, "merge_mode": "concat", "inputs": []}, {"input": "input", "create_output": false, "name": "conv-3", "dot_axes": -1, "concat_axis": -1, "merge_mode": "concat", "inputs": []}, {"input": "conv-3", "create_output": false, "name": "maxpool-3", "dot_axes": -1, "concat_axis": -1, "merge_mode": "concat", "inputs": []}, {"input": "maxpool-3", "create_output": false, "name": "flatten-3", "dot_axes": -1, "concat_axis": -1, "merge_mode": "concat", "inputs": []}, {"input": "input", "create_output": false, "name": "conv-4", "dot_axes": -1, "concat_axis": -1, "merge_mode": "concat", "inputs": []}, {"input": "conv-4", "create_output": false, "name": "maxpool-4", "dot_axes": -1, "concat_axis": -1, "merge_mode": "concat", "inputs": []}, {"input": "maxpool-4", "create_output": false, "name": "flatten-4", "dot_axes": -1, "concat_axis": -1, "merge_mode": "concat", "inputs": []}, {"input": "input", "create_output": false, "name": "conv-5", "dot_axes": -1, "concat_axis": -1, "merge_mode": "concat", "inputs": []}, {"input": "conv-5", "create_output": false, "name": "maxpool-5", "dot_axes": -1, "concat_axis": -1, "merge_mode": "concat", "inputs": []}, {"input": "maxpool-5", "create_output": false, "name": "flatten-5", "dot_axes": -1, "concat_axis": -1, "merge_mode": "concat", "inputs": []}, {"input": "input", "create_output": false, "name": "conv-6", "dot_axes": -1, "concat_axis": -1, "merge_mode": "concat", "inputs": []}, {"input": "conv-6", "create_output": false, "name": "maxpool-6", "dot_axes": -1, "concat_axis": -1, "merge_mode": "concat", "inputs": []}, {"input": "maxpool-6", "create_output": false, "name": "flatten-6", "dot_axes": -1, "concat_axis": -1, "merge_mode": "concat", "inputs": []}], "output_config": [{"input": null, "name": "output", "dot_axes": -1, "concat_axis": -1, "merge_mode": "concat", "inputs": ["flatten-2", "flatten-3", "flatten-4", "flatten-5", "flatten-6"]}], "nodes": {"flatten-2": {"config": {"trainable": true, "name": "flatten-2"}, "class_name": "Flatten"}, "flatten-5": {"config": {"trainable": true, "name": "flatten-5"}, "class_name": "Flatten"}, "conv-5": {"config": {"nb_col": 40, "dim_ordering": "th", "name": "conv-5", "activity_regularizer": null, "border_mode": "valid", "b_regularizer": null, "trainable": true, "nb_filter": 150, "W_constraint": null, "subsample": [1, 1], "bias": true, "activation": "linear", "input_dtype": "float32", "batch_input_shape": [null, 1, 60, 40], "nb_row": 5, "W_regularizer": null, "b_constraint": null, "init": "glorot_uniform"}, "class_name": "Convolution2D"}, "maxpool-5": {"config": {"trainable": true, "strides": [56, 1], "dim_ordering": "th", "name": "maxpool-5", "border_mode": "valid", "pool_size": [56, 1]}, "class_name": "MaxPooling2D"}, "conv-3": {"config": {"nb_col": 40, "dim_ordering": "th", "name": "conv-3", "activity_regularizer": null, "border_mode": "valid", "b_regularizer": null, "trainable": true, "nb_filter": 150, "W_constraint": null, "subsample": [1, 1], "bias": true, "activation": "linear", "input_dtype": "float32", "batch_input_shape": [null, 1, 60, 40], "nb_row": 3, "W_regularizer": null, "b_constraint": null, "init": "glorot_uniform"}, "class_name": "Convolution2D"}, "maxpool-4": {"config": {"trainable": true, "strides": [57, 1], "dim_ordering": "th", "name": "maxpool-4", "border_mode": "valid", "pool_size": [57, 1]}, "class_name": "MaxPooling2D"}, "maxpool-2": {"config": {"trainable": true, "strides": [59, 1], "dim_ordering": "th", "name": "maxpool-2", "border_mode": "valid", "pool_size": [59, 1]}, "class_name": "MaxPooling2D"}, "maxpool-3": {"config": {"trainable": true, "strides": [58, 1], "dim_ordering": "th", "name": "maxpool-3", "border_mode": "valid", "pool_size": [58, 1]}, "class_name": "MaxPooling2D"}, "flatten-6": {"config": {"trainable": true, "name": "flatten-6"}, "class_name": "Flatten"}, "flatten-3": {"config": {"trainable": true, "name": "flatten-3"}, "class_name": "Flatten"}, "maxpool-6": {"config": {"trainable": true, "strides": [55, 1], "dim_ordering": "th", "name": "maxpool-6", "border_mode": "valid", "pool_size": [55, 1]}, "class_name": "MaxPooling2D"}, "conv-4": {"config": {"nb_col": 40, "dim_ordering": "th", "name": "conv-4", "activity_regularizer": null, "border_mode": "valid", "b_regularizer": null, "trainable": true, "nb_filter": 150, "W_constraint": null, "subsample": [1, 1], "bias": true, "activation": "linear", "input_dtype": "float32", "batch_input_shape": [null, 1, 60, 40], "nb_row": 4, "W_regularizer": null, "b_constraint": null, "init": "glorot_uniform"}, "class_name": "Convolution2D"}, "conv-6": {"config": {"nb_col": 40, "dim_ordering": "th", "name": "conv-6", "activity_regularizer": null, "border_mode": "valid", "b_regularizer": null, "trainable": true, "nb_filter": 150, "W_constraint": null, "subsample": [1, 1], "bias": true, "activation": "linear", "input_dtype": "float32", "batch_input_shape": [null, 1, 60, 40], "nb_row": 6, "W_regularizer": null, "b_constraint": null, "init": "glorot_uniform"}, "class_name": "Convolution2D"}, "flatten-4": {"config": {"trainable": true, "name": "flatten-4"}, "class_name": "Flatten"}, "conv-2": {"config": {"nb_col": 40, "dim_ordering": "th", "name": "conv-2", "activity_regularizer": null, "border_mode": "valid", "b_regularizer": null, "trainable": true, "nb_filter": 150, "W_constraint": null, "subsample": [1, 1], "bias": true, "activation": "linear", "input_dtype": "float32", "batch_input_shape": [null, 1, 60, 40], "nb_row": 2, "W_regularizer": null, "b_constraint": null, "init": "glorot_uniform"}, "class_name": "Convolution2D"}}, "input_config": [{"input_shape": [1, 60, 40], "dtype": "float32", "name": "input"}]}, "class_name": "Graph"}, {"config": {"name": "dense_1", "init": "glorot_uniform", "activity_regularizer": null, "output_dim": 150, "b_regularizer": null, "trainable": true, "W_constraint": null, "input_dim": null, "bias": true, "W_regularizer": null, "b_constraint": null, "activation": "linear"}, "class_name": "Dense"}, {"config": {"trainable": true, "p": 0.5, "name": "dropout_2"}, "class_name": "Dropout"}, {"config": {"trainable": true, "name": "activation_1", "activation": "relu"}, "class_name": "Activation"}, {"config": {"name": "dense_2", "init": "glorot_uniform", "activity_regularizer": null, "output_dim": 1, "b_regularizer": null, "trainable": true, "W_constraint": null, "input_dim": null, "bias": true, "W_regularizer": null, "b_constraint": null, "activation": "linear"}, "class_name": "Dense"}, {"config": {"trainable": true, "name": "activation_2", "activation": "sigmoid"}, "class_name": "Activation"}], "class_name": "Sequential"}