{"config": [{"config": {"p": 0.25, "batch_input_shape": [null, 1, 60, 50], "input_dtype": "float32", "trainable": true, "name": "dropout_3"}, "class_name": "Dropout"}, {"config": {"output_config": [{"merge_mode": "concat", "dot_axes": -1, "input": null, "name": "output", "concat_axis": -1, "inputs": ["flatten-2", "flatten-3", "flatten-4", "flatten-5", "flatten-6"]}], "nodes": {"conv-5": {"config": {"W_constraint": null, "input_dtype": "float32", "activation": "linear", "bias": true, "batch_input_shape": [null, 1, 60, 50], "nb_filter": 150, "subsample": [1, 1], "activity_regularizer": null, "b_regularizer": null, "nb_row": 5, "W_regularizer": null, "border_mode": "valid", "init": "glorot_uniform", "nb_col": 50, "name": "conv-5", "dim_ordering": "th", "b_constraint": null, "trainable": true}, "class_name": "Convolution2D"}, "flatten-2": {"config": {"trainable": true, "name": "flatten-2"}, "class_name": "Flatten"}, "maxpool-4": {"config": {"border_mode": "valid", "pool_size": [57, 1], "dim_ordering": "th", "strides": [57, 1], "trainable": true, "name": "maxpool-4"}, "class_name": "MaxPooling2D"}, "maxpool-3": {"config": {"border_mode": "valid", "pool_size": [58, 1], "dim_ordering": "th", "strides": [58, 1], "trainable": true, "name": "maxpool-3"}, "class_name": "MaxPooling2D"}, "conv-2": {"config": {"W_constraint": null, "input_dtype": "float32", "activation": "linear", "bias": true, "batch_input_shape": [null, 1, 60, 50], "nb_filter": 150, "subsample": [1, 1], "activity_regularizer": null, "b_regularizer": null, "nb_row": 2, "W_regularizer": null, "border_mode": "valid", "init": "glorot_uniform", "nb_col": 50, "name": "conv-2", "dim_ordering": "th", "b_constraint": null, "trainable": true}, "class_name": "Convolution2D"}, "maxpool-5": {"config": {"border_mode": "valid", "pool_size": [56, 1], "dim_ordering": "th", "strides": [56, 1], "trainable": true, "name": "maxpool-5"}, "class_name": "MaxPooling2D"}, "conv-6": {"config": {"W_constraint": null, "input_dtype": "float32", "activation": "linear", "bias": true, "batch_input_shape": [null, 1, 60, 50], "nb_filter": 150, "subsample": [1, 1], "activity_regularizer": null, "b_regularizer": null, "nb_row": 6, "W_regularizer": null, "border_mode": "valid", "init": "glorot_uniform", "nb_col": 50, "name": "conv-6", "dim_ordering": "th", "b_constraint": null, "trainable": true}, "class_name": "Convolution2D"}, "maxpool-6": {"config": {"border_mode": "valid", "pool_size": [55, 1], "dim_ordering": "th", "strides": [55, 1], "trainable": true, "name": "maxpool-6"}, "class_name": "MaxPooling2D"}, "conv-4": {"config": {"W_constraint": null, "input_dtype": "float32", "activation": "linear", "bias": true, "batch_input_shape": [null, 1, 60, 50], "nb_filter": 150, "subsample": [1, 1], "activity_regularizer": null, "b_regularizer": null, "nb_row": 4, "W_regularizer": null, "border_mode": "valid", "init": "glorot_uniform", "nb_col": 50, "name": "conv-4", "dim_ordering": "th", "b_constraint": null, "trainable": true}, "class_name": "Convolution2D"}, "flatten-5": {"config": {"trainable": true, "name": "flatten-5"}, "class_name": "Flatten"}, "conv-3": {"config": {"W_constraint": null, "input_dtype": "float32", "activation": "linear", "bias": true, "batch_input_shape": [null, 1, 60, 50], "nb_filter": 150, "subsample": [1, 1], "activity_regularizer": null, "b_regularizer": null, "nb_row": 3, "W_regularizer": null, "border_mode": "valid", "init": "glorot_uniform", "nb_col": 50, "name": "conv-3", "dim_ordering": "th", "b_constraint": null, "trainable": true}, "class_name": "Convolution2D"}, "flatten-4": {"config": {"trainable": true, "name": "flatten-4"}, "class_name": "Flatten"}, "flatten-3": {"config": {"trainable": true, "name": "flatten-3"}, "class_name": "Flatten"}, "flatten-6": {"config": {"trainable": true, "name": "flatten-6"}, "class_name": "Flatten"}, "maxpool-2": {"config": {"border_mode": "valid", "pool_size": [59, 1], "dim_ordering": "th", "strides": [59, 1], "trainable": true, "name": "maxpool-2"}, "class_name": "MaxPooling2D"}}, "node_config": [{"merge_mode": "concat", "dot_axes": -1, "input": "input", "name": "conv-2", "concat_axis": -1, "create_output": false, "inputs": []}, {"merge_mode": "concat", "dot_axes": -1, "input": "conv-2", "name": "maxpool-2", "concat_axis": -1, "create_output": false, "inputs": []}, {"merge_mode": "concat", "dot_axes": -1, "input": "maxpool-2", "name": "flatten-2", "concat_axis": -1, "create_output": false, "inputs": []}, {"merge_mode": "concat", "dot_axes": -1, "input": "input", "name": "conv-3", "concat_axis": -1, "create_output": false, "inputs": []}, {"merge_mode": "concat", "dot_axes": -1, "input": "conv-3", "name": "maxpool-3", "concat_axis": -1, "create_output": false, "inputs": []}, {"merge_mode": "concat", "dot_axes": -1, "input": "maxpool-3", "name": "flatten-3", "concat_axis": -1, "create_output": false, "inputs": []}, {"merge_mode": "concat", "dot_axes": -1, "input": "input", "name": "conv-4", "concat_axis": -1, "create_output": false, "inputs": []}, {"merge_mode": "concat", "dot_axes": -1, "input": "conv-4", "name": "maxpool-4", "concat_axis": -1, "create_output": false, "inputs": []}, {"merge_mode": "concat", "dot_axes": -1, "input": "maxpool-4", "name": "flatten-4", "concat_axis": -1, "create_output": false, "inputs": []}, {"merge_mode": "concat", "dot_axes": -1, "input": "input", "name": "conv-5", "concat_axis": -1, "create_output": false, "inputs": []}, {"merge_mode": "concat", "dot_axes": -1, "input": "conv-5", "name": "maxpool-5", "concat_axis": -1, "create_output": false, "inputs": []}, {"merge_mode": "concat", "dot_axes": -1, "input": "maxpool-5", "name": "flatten-5", "concat_axis": -1, "create_output": false, "inputs": []}, {"merge_mode": "concat", "dot_axes": -1, "input": "input", "name": "conv-6", "concat_axis": -1, "create_output": false, "inputs": []}, {"merge_mode": "concat", "dot_axes": -1, "input": "conv-6", "name": "maxpool-6", "concat_axis": -1, "create_output": false, "inputs": []}, {"merge_mode": "concat", "dot_axes": -1, "input": "maxpool-6", "name": "flatten-6", "concat_axis": -1, "create_output": false, "inputs": []}], "input_config": [{"dtype": "float32", "input_shape": [1, 60, 50], "name": "input"}]}, "class_name": "Graph"}, {"config": {"W_constraint": null, "input_dim": null, "activation": "linear", "b_constraint": null, "W_regularizer": null, "activity_regularizer": null, "output_dim": 150, "b_regularizer": null, "init": "glorot_uniform", "name": "dense_3", "bias": true, "trainable": true}, "class_name": "Dense"}, {"config": {"p": 0.5, "trainable": true, "name": "dropout_4"}, "class_name": "Dropout"}, {"config": {"trainable": true, "activation": "relu", "name": "activation_3"}, "class_name": "Activation"}, {"config": {"W_constraint": null, "input_dim": null, "activation": "linear", "b_constraint": null, "W_regularizer": null, "activity_regularizer": null, "output_dim": 1, "b_regularizer": null, "init": "glorot_uniform", "name": "dense_4", "bias": true, "trainable": true}, "class_name": "Dense"}, {"config": {"trainable": true, "activation": "sigmoid", "name": "activation_4"}, "class_name": "Activation"}], "class_name": "Sequential", "loss": "binary_crossentropy", "keras_version": "1.0.4", "optimizer": {"rho": 0.8999999761581421, "epsilon": 1e-08, "lr": 0.0010000000474974513, "name": "RMSprop"}, "sample_weight_mode": null}